…
2026-03-12 09:28:20,411 - INFO - Labels shape: (4562,)
2026-03-12 09:28:20,413 - INFO - Training samples: 4562
2026-03-12 09:28:20,413 - INFO - Using full dataset for training (no validation split).
2026-03-12 09:28:20,413 - INFO - 🔄 Building model...
2026-03-12 09:28:20,458 - INFO - Model: "sequential"
┏━━━━━━━━━━━━━━━━━━━━━━━━━━━━━━━━━━━━━━┳━━━━━━━━━━━━━━━━━━━━━━━━━━━━━┳━━━━━━━━━━━━━━━━━┓
┃ Layer (type)                         ┃ Output Shape                ┃         Param # ┃
┡━━━━━━━━━━━━━━━━━━━━━━━━━━━━━━━━━━━━━━╇━━━━━━━━━━━━━━━━━━━━━━━━━━━━━╇━━━━━━━━━━━━━━━━━┩
│ reshape (Reshape)                    │ (None, 101, 13, 1)          │               0 │
├──────────────────────────────────────┼─────────────────────────────┼─────────────────┤
│ separable_conv2d (SeparableConv2D)   │ (None, 101, 13, 32)         │              73 │
├──────────────────────────────────────┼─────────────────────────────┼─────────────────┤
│ batch_normalization                  │ (None, 101, 13, 32)         │             128 │
│ (BatchNormalization)                 │                             │                 │
├──────────────────────────────────────┼─────────────────────────────┼─────────────────┤
│ max_pooling2d (MaxPooling2D)         │ (None, 50, 6, 32)           │               0 │
├──────────────────────────────────────┼─────────────────────────────┼─────────────────┤
│ dropout (Dropout)                    │ (None, 50, 6, 32)           │               0 │
├──────────────────────────────────────┼─────────────────────────────┼─────────────────┤
│ separable_conv2d_1 (SeparableConv2D) │ (None, 50, 6, 64)           │           2,400 │
├──────────────────────────────────────┼─────────────────────────────┼─────────────────┤
│ batch_normalization_1                │ (None, 50, 6, 64)           │             256 │
│ (BatchNormalization)                 │                             │                 │
├──────────────────────────────────────┼─────────────────────────────┼─────────────────┤
│ max_pooling2d_1 (MaxPooling2D)       │ (None, 25, 3, 64)           │               0 │
├──────────────────────────────────────┼─────────────────────────────┼─────────────────┤
│ dropout_1 (Dropout)                  │ (None, 25, 3, 64)           │               0 │
├──────────────────────────────────────┼─────────────────────────────┼─────────────────┤
│ separable_conv2d_2 (SeparableConv2D) │ (None, 25, 3, 64)           │           4,736 │
├──────────────────────────────────────┼─────────────────────────────┼─────────────────┤
│ batch_normalization_2                │ (None, 25, 3, 64)           │             256 │
│ (BatchNormalization)                 │                             │                 │
├──────────────────────────────────────┼─────────────────────────────┼─────────────────┤
│ dropout_2 (Dropout)                  │ (None, 25, 3, 64)           │               0 │
├──────────────────────────────────────┼─────────────────────────────┼─────────────────┤
│ global_average_pooling2d             │ (None, 64)                  │               0 │
│ (GlobalAveragePooling2D)             │                             │                 │
├──────────────────────────────────────┼─────────────────────────────┼─────────────────┤
│ dense (Dense)                        │ (None, 64)                  │           4,160 │
├──────────────────────────────────────┼─────────────────────────────┼─────────────────┤
│ batch_normalization_3                │ (None, 64)                  │             256 │
│ (BatchNormalization)                 │                             │                 │
├──────────────────────────────────────┼─────────────────────────────┼─────────────────┤
│ dropout_3 (Dropout)                  │ (None, 64)                  │               0 │
├──────────────────────────────────────┼─────────────────────────────┼─────────────────┤
│ dense_1 (Dense)                      │ (None, 3)                   │             195 │
└──────────────────────────────────────┴─────────────────────────────┴─────────────────┘
 Total params: 12,460 (48.67 KB)
 Trainable params: 12,012 (46.92 KB)
 Non-trainable params: 448 (1.75 KB)

2026-03-12 09:28:20,459 - INFO - 
================================================================================
2026-03-12 09:28:20,459 - INFO - 🚀 STARTING TRAINING
2026-03-12 09:28:20,459 - INFO - ================================================================================
…
